weights/wav2vec2/linear.pt (torch, 133714 bytes, 2 tensors)

fc.weight f4 [43, 768]
0	0xbd8fad0e	-0.070154294
1	0x3e0bf68e	0.13668272
2	0xbe75b5f4	-0.23995191
3	0xbe718700	-0.23586655
4	0x3e799c95	0.24376138
5	0xbe6b339e	-0.22968909
6	0x3e3473a1	0.17622234
7	0x3c9f4985	0.019444237
8	0x3e2a9f1e	0.16662261
9	0x3e85eb84	0.26156247
10	0xbeb8e693	-0.36113414
11	0x3ec8bf94	0.39208663
12	0xbd78633b	-0.06064151
13	0x3ead2298	0.33815455
14	0xbdff6a65	-0.12471465
15	0xbd68369d	-0.05669271
16	0x3ed6addb	0.41929516
17	0x3e397c68	0.18113863
18	0x3bcf1715	0.0063198903
19	0x3ecd7305	0.40126815
20	0xbdb2d4d2	-0.087319985
21	0x3e6fbeb4	0.23412591
22	0xbd5f4859	-0.054512355
23	0xbe011848	-0.12606919
24	0x3d9a63b8	0.07538551
25	0x3ee12e89	0.43980816
26	0x3e3d3fbb	0.18481342
27	0x3eaff488	0.3436625
28	0xbd2c1c95	-0.042019445
29	0xbd5b73f0	-0.053577363
30	0xbecac294	-0.39601576
31	0xbe19eea7	-0.15032445
32	0xbe86ad03	-0.26303872
33	0xbe877183	-0.2645379
34	0xbe70cf39	-0.23516549
35	0x3da59d17	0.08086603
36	0xbe9a7507	-0.3016741
37	0xbf1f9007	-0.62329143
38	0x3e389adc	0.18027824
39	0x3de0137f	0.109412186
40	0xbdc9192a	-0.09819253
41	0x3f05c08f	0.52246946
42	0xbda3aafc	-0.07991597
43	0x3d8ffc79	0.07030577
44	0xbdf5754a	-0.11985262
45	0x3e3c26be	0.18374154
46	0xbe70c4be	-0.23512551
47	0x3d173a75	0.036920983
48	0xbec15342	-0.37758833
49	0xbde53f99	-0.11193771
50	0x3ee103d5	0.43948236
51	0xbebcd305	-0.36879745
52	0xbc973bfb	-0.018461218
53	0xbc9cd43f	-0.019144176
54	0xbdbd7dfe	-0.09252547
55	0x3e382a23	0.17984824
56	0x3d088406	0.033329032
57	0x3e99aee7	0.30016252
58	0xbe54bca4	-0.20775086
59	0x3d98b2d5	0.074559845
60	0x3dfcede5	0.12350062
61	0x3cbc115f	0.022957502
62	0x3ecc7752	0.39934784
63	0x3e774889	0.24148764
64	0xbd6f7aa2	-0.05846656
65	0x3d9385f7	0.07203286
66	0x3f4311b4	0.7619889
67	0x3dc43019	0.095794864
68	0xbcaa8e08	-0.020819679
69	0x3d8d0eb5	0.06887571
70	0xbe82866a	-0.25493175
71	0xbe8abde0	-0.27097988
72	0xbd9036b8	-0.07041687
73	0xbecd1ecb	-0.40062556
74	0xbc7a662a	-0.015283147
75	0xbea267af	-0.3171973
76	0xbe1ad9cf	-0.1512215
77	0x3d6da773	0.05802102
78	0x3e3fd122	0.18732122
79	0xbef4e106	-0.4782793
80	0xbe0eeac3	-0.13956742
81	0x3ee8de6a	0.45482188
82	0x3e5efb25	0.21775492
83	0xbe896239	-0.2683275
84	0xbe280451	-0.16407897
85	0xbe091d1a	-0.13390008
86	0xbe486f03	-0.19573598
87	0xbeadf40c	-0.33975255
88	0x3ea747ca	0.32671958
89	0xbe5c8139	-0.2153367
90	0x3e503d26	0.20335826
91	0x3e6249ed	0.22098513
92	0xbd269a26	-0.04067435
93	0xbd92bbed	-0.0716475
94	0x3d7faea7	0.06242242
95	0xbe06a897	-0.1315025
96	0xbe9ea49a	-0.30984956
97	0x3d939705	0.07206539
98	0xbd5fc3f0	-0.05463022
99	0x3ec4fe4b	0.3847526
100	0xbec2f323	-0.38076124
101	0xbe90d06c	-0.28284013
102	0x3ea23b2f	0.31685778
103	0x3eb0bba5	0.3451816
104	0xbd0953f4	-0.03352733
105	0x3de5c84b	0.112198435
106	0xbe928d90	-0.2862363
107	0x3e82252c	0.25418985
108	0xbdf99cc2	-0.12188102
109	0xbe12db3e	-0.14341447
110	0xbe74c0d6	-0.23901686
111	0x3e5ef30a	0.217724
112	0x3d7d3faf	0.06182831
113	0xbeb88537	-0.36039135
114	0x3e9cecd7	0.30649444
115	0xbd9d7307	-0.07687955
116	0xbe8635b9	-0.26212862
117	0x3dfe8901	0.12428475
118	0x3ee1f13c	0.4412936
119	0xbd6cb902	-0.057793625
120	0x3f028517	0.5098433
121	0x3d2f7c10	0.042842925
122	0x3d551929	0.052025948
123	0xbe2773e6	-0.16352805
124	0x3c5cd376	0.013478151
125	0x3dbe2e7f	0.09286212
126	0xbe05fedc	-0.13085502
127	0x3ecc4c67	0.3990204
128	0xbd5cf8f2	-0.05394835
129	0xbe0524d9	-0.13002338
130	0x3dbd2af9	0.09236712
131	0x3e60f4b2	0.21968344
132	0x3f0a6db7	0.5407366
133	0x3ef62417	0.4807441
134	0x3c2c449a	0.010514403
135	0xb9363de4	-0.00017379929
136	0xbc55e3ae	-0.013054771
137	0x3e03b7f5	0.12863143
138	0xbe3ade4a	-0.18248859
139	0x3e5c61d4	0.21521693
140	0xbd671bee	-0.05642312
141	0xbe97b91d	-0.29633418
142	0xbe9f64b0	-0.31131506
143	0xbe3ad5fa	-0.18245688
144	0xbeb81031	-0.35949853
145	0xbe995d6b	-0.29954085
146	0x3e086be6	0.1332241
147	0xbe62aa92	-0.2213538
148	0xbd3ce1e3	-0.04611386
149	0x3eb1cd62	0.34727007
150	0xbe4d314e	-0.2003834
151	0xbe40f244	-0.18842417
152	0xbe83e89f	-0.25763413
153	0xbd8c5e8f	-0.06853973
154	0xbebd58d9	-0.36981848
155	0xbef3006b	-0.47461256
156	0x3efcdffc	0.49389637
157	0xbce1795c	-0.027523689
158	0xbed7dced	-0.4216074
159	0x3d74eb24	0.05979456
160	0xbdd20f69	-0.102568455
161	0x3f1c2648	0.6099591
162	0x3dfcfc6f	0.123528354
163	0xbe9a9fcf	-0.3020005
164	0x3c151af0	0.009100661
165	0x3e7b5f2d	0.24548025
166	0x3c1d9bff	0.009619712
167	0x3dbf7916	0.09349267
168	0x3ea58887	0.32330725
169	0xbe8f1144	-0.2794286
170	0x3ea368bb	0.3191584
171	0xbe5d7a9d	-0.21628805
172	0xbe92b600	-0.2865448
173	0x3b90f51c	0.0044237506
174	0x3eca443a	0.39505178
175	0xbd5c92d9	-0.053850982
176	0xbe9a0cf8	-0.3008802
177	0x3db01e02	0.085994735
178	0xbc88f151	-0.016716631
179	0x3e299f7c	0.16564745
180	0xbee32911	-0.4436727
181	0x3e2e47df	0.17019604
182	0xbd971664	-0.073773175
183	0x3ef4811e	0.4775476
184	0xbe77adba	-0.24187365
185	0x3e5f1b71	0.21787812
186	0xbe9055c8	-0.28190446
187	0xbe91ada4	-0.2845279
188	0x3a7fb374	0.00097542186
189	0xbd06580d	-0.032798816
190	0xbdd9da19	-0.10637302
191	0xbe83a1a9	-0.25709274
192	0xbe3ef26d	-0.18647166
193	0x3dfd964e	0.12382184
194	0xbd9452cb	-0.07242354
195	0xbe73b1b9	-0.23798265
196	0xbc3e708d	-0.011623514
197	0xbe1fc757	-0.15603386
198	0x3cb1c058	0.021698162
199	0x3d9fcb9c	0.07802507
200	0x3e71c8b1	0.23611714
201	0xbeb25767	-0.34832308
202	0xbdd09a35	-0.10185663
203	0x3d1237d4	0.035697773
204	0xba47e6a7	-0.00076256174
205	0xbe044584	-0.12917143
206	0xbe0730ee	-0.13202259
207	0xbe70c144	-0.23511225
208	0x3ccaa593	0.024737155
209	0x3e156eb5	0.14593013
210	0x3def2497	0.11676901
211	0x3e391bfd	0.18077083
212	0xbe77f101	-0.2421303
213	0xbe1d68e9	-0.15372051
214	0xbd99e2a1	-0.07513929
215	0xbeb27dcb	-0.34861597
216	0xbe202e8c	-0.15642756
217	0x3dd85170	0.10562408
218	0xbd14ca46	-0.036325715
219	0xbe58f987	-0.21188937
220	0x3bc8841b	0.006119264
221	0xbda8c46b	-0.08240589
222	0x3e281457	0.16414009
223	0xbd9e3a39	-0.07725949
224	0xbd4944d8	-0.04913792
225	0xbdf0f9da	-0.117664054
226	0x3d1e1b73	0.038600396
227	0xbe04c85a	-0.12967053
228	0xbdc7657f	-0.09736156
229	0xbd96c86f	-0.073624484
230	0xbe3d6812	-0.18496731
231	0x3d136117	0.035981264
232	0xbe9429c5	-0.28938118
233	0xbd7f196c	-0.062280104
234	0x3e402542	0.18764213
235	0xbd97e334	-0.074163824
236	0xbe46e4cf	-0.19423221
237	0xbe8acc91	-0.27109197
238	0x3e31ad38	0.17351234
239	0xbe97e6de	-0.29668325
240	0x3ea03151	0.31287625
241	0x3d2cdcde	0.042202823
242	0x3d642d90	0.055707514
243	0xbe82c5b8	-0.25541472
244	0xbf00a7d9	-0.50256115
245	0x3e903515	0.28165498
246	0xbd32116a	-0.04347364
247	0xbd83a79e	-0.06428455
248	0xbe6e4952	-0.23270157
249	0x3e73c943	0.23807244
250	0x3e17f065	0.14837797
251	0xbea1660b	-0.31523165
252	0xbf488769	-0.7833162
253	0xbe11eee9	-0.14251293
254	0xbe9c106e	-0.30481285
255	0xbd857614	-0.06516662

fc.bias f4 [43]
0	0x3d12a6d9	0.03580365
1	0xbea7c6fe	-0.32769006
2	0xbede34ce	-0.43399662
3	0xbd6ab6c8	-0.05730322
4	0xbecf4434	-0.40481722
5	0xbee389b7	-0.44441006
6	0xbee1234f	-0.4397225
7	0xbee24fc0	-0.4420147
8	0xbe79cdca	-0.24394909
9	0xbedc9466	-0.4308197
10	0xbef00adc	-0.46883285
11	0xbe725a63	-0.23667292
12	0xbeb818db	-0.35956463
13	0xbebefbe7	-0.3730156
14	0xbedb1add	-0.42793933
15	0xbef74769	-0.4829667
16	0x3ee933c6	0.45547312
17	0xbec613c3	-0.38686952
18	0xbd806a03	-0.0627022
19	0xbe977899	-0.29584196
20	0xbee81cdd	-0.4533452
21	0xbec051e6	-0.37562484
22	0xbe814b49	-0.2525275
23	0xbe9a113d	-0.30091277
24	0xbdec649f	-0.115426295
25	0xbec11d66	-0.37717742
26	0xbec5f255	-0.38661447
27	0xbf11e8c4	-0.569958
28	0xbecf00f5	-0.40430418
29	0xbe7d1495	-0.24714883
30	0xbe87a2eb	-0.26491484
31	0xbeba4cfc	-0.3638686
32	0xbea44ce1	-0.32089904
33	0xbe8d1c87	-0.27560827
34	0xbe815c38	-0.2526567
35	0xbe9fb51f	-0.31192872
36	0xbec7d6b3	-0.3903099
37	0xbea8c81e	-0.32965177
38	0xbec749b6	-0.38923424
39	0xbe84176c	-0.2579912
40	0xbfe1552d	-1.7604119
41	0xbfdf0909	-1.7424632
42	0x3f9a4c2e	1.2054498
